…
      SARS_CoV_2  False         577
                  True          540
env1  HIV1        False         226
                  True          552
      SARS_CoV_2  False        1347
                  True         1748
env2  HIV1        False         132
                  True          143
      SARS_CoV_2  False         930
                  True          539
env3  HIV1        False         233
                  True          315
      SARS_CoV_2  False        1516
                  True         1624
Name: is_binder, dtype: int64
(10606, 16)
['env0' 'env1' 'env2' 'env3']
Nonlinear featurizer:  SeqCNN(
  (embed): Embedding(1214, 64, padding_idx=0)
  (emb_ab): Embedding(22, 64, padding_idx=0)
  (emb_ag): Embedding(22, 64, padding_idx=0)
  (conv_layers): Sequential(
    (0): Conv1d(64, 64, kernel_size=(10,), stride=(2,))
    (1): ReLU()
    (2): Conv1d(64, 128, kernel_size=(5,), stride=(2,))
    (3): ReLU()
  )
  (ffd): Linear(in_features=256, out_features=256, bias=True)
  (classifier): Linear(in_features=256, out_features=2, bias=True)
)
Nonlinear classifier:  Linear(in_features=256, out_features=2, bias=True)
/hpc/group/naderilab/imt11/Miniconda3/lib/python3.12/multiprocessing/popen_fork.py:66: DeprecationWarning: This process (pid=495921) is multi-threaded, use of fork() may lead to deadlocks in the child.
  self.pid = os.fork()
/hpc/group/naderilab/imt11/Miniconda3/lib/python3.12/multiprocessing/popen_fork.py:66: DeprecationWarning: This process (pid=495921) is multi-threaded, use of fork() may lead to deadlocks in the child.
…
      SARS_CoV_2  False         577
                  True          540
env1  HIV1        False         226
                  True          552
      SARS_CoV_2  False        1347
                  True         1748
env2  HIV1        False         132
                  True          143
      SARS_CoV_2  False         930
                  True          539
env3  HIV1        False         233
                  True          315
      SARS_CoV_2  False        1516
                  True         1624
Name: is_binder, dtype: int64
(10606, 16)
['env0' 'env1' 'env2' 'env3']
Nonlinear featurizer:  SeqCNN(
  (embed): Embedding(1214, 64, padding_idx=0)
  (emb_ab): Embedding(22, 64, padding_idx=0)
  (emb_ag): Embedding(22, 64, padding_idx=0)
  (conv_layers): Sequential(
    (0): Conv1d(64, 64, kernel_size=(10,), stride=(2,))
    (1): ReLU()
    (2): Conv1d(64, 128, kernel_size=(5,), stride=(2,))
    (3): ReLU()
  )
  (ffd): Linear(in_features=256, out_features=256, bias=True)
)
Nonlinear classifier:  Linear(in_features=256, out_features=2, bias=True)
/hpc/group/naderilab/imt11/Miniconda3/lib/python3.12/multiprocessing/popen_fork.py:66: DeprecationWarning: This process (pid=496864) is multi-threaded, use of fork() may lead to deadlocks in the child.
  self.pid = os.fork()
/hpc/group/naderilab/imt11/Miniconda3/lib/python3.12/multiprocessing/popen_fork.py:66: DeprecationWarning: This process (pid=496864) is multi-threaded, use of fork() may lead to deadlocks in the child.
…
